modelv1/insurance_model.pth (torch, 7448 bytes, 5 tensors)

weight f4 [16, 4]
000000 40 95 78 3c 10 8f 18 3d 0a 89 8b be 00 fe 5a 3b
       0.015172303 0.03724581 -0.2725299 0.0033415556
000010 08 8a 1e be e0 eb 87 3e d6 88 a8 3e 78 29 d8 3e
       -0.15482342 0.26547146 0.32916898 0.42219138
000020 08 95 e9 bd 20 e4 81 3c 10 ea 9a bd f4 7e ab be
       -0.114053786 0.015855849 -0.07564175 -0.33495295
000030 40 f2 b5 3d 12 43 d6 3e 90 44 d6 3d a0 65 27 3e
       0.08884096 0.41848046 0.10462296 0.1634736
000040 12 a6 e0 3e b8 49 dd bd a0 b9 05 3e 90 8f 79 3d
       0.43876702 -0.10805076 0.13059092 0.060927927
000050 10 f2 f8 bd 88 50 8f be 28 3f 43 3e 98 e2 0b 3e
       -0.12155545 -0.27991128 0.19067061 0.13660657
000060 b2 fd fa 3e 50 d0 99 bd 54 39 f3 3e 80 8b 18 3c
       0.4902168 -0.075104356 0.47504675 0.009310603
000070 c0 69 f7 be 1a 6a 89 3e e2 29 af 3e 3c f7 46 be
       -0.48322868 0.26838762 0.34211642 -0.1943025
000080 10 b1 83 3d f4 75 24 be 62 b8 ee be a0 6d c4 bc
       0.06430256 -0.1606062 -0.46625048 -0.023978055
000090 f4 21 cb be d4 df ad be 20 bf ca bc 88 cc fc bd
       -0.39674342 -0.3395983 -0.024749339 -0.12343699
0000a0 46 e1 bc 3e c8 7a 05 3e be 1c b6 3e 48 28 79 3e
       0.3689062 0.13035119 0.35568804 0.24331772
0000b0 a0 fe de 3c 78 f5 1b 3e fc 6e 26 3e a0 3b 3e 3e
       0.027221024 0.15230358 0.16253275 0.18577433
0000c0 1a 78 80 3e 38 4f d0 3e 4c 59 a5 be 9c 20 ce be
       0.2509163 0.4068544 -0.3229469 -0.40259254
0000d0 d0 7e 34 be 30 77 72 3e 08 50 cf be 68 b7 85 3e
       -0.176265 0.23678279 -0.40490746 0.2611649
0000e0 38 7d 0c 3e 30 84 0d 3d b8 da 37 3e 20 5a cc be
       0.13719642 0.034549892 0.17954528 -0.3991251
0000f0 1c 67 e8 be 8e 72 a3 3e 00 14 e7 bb 84 a7 11 be
       -0.45391166 0.31923336 -0.0070519447 -0.14224058

bias f4 [16]
000000 80 a2 30 be 2e b6 a2 be 24 e9 d7 be 34 ef 2f 3e
       -0.17249489 -0.31779617 -0.4217006 0.17181093
000010 20 4c f1 bd b0 53 8d 3d 64 e1 df be e0 0c d5 bd
       -0.11782098 0.06900728 -0.43726647 -0.10402846
000020 80 74 d8 bd 50 6e e8 be 38 40 95 bd 3c 1d 18 3e
       -0.105690956 -0.45396662 -0.072876394 0.14854902
000030 38 a8 f1 be cc 5f d2 3e f8 ce b0 3d 9e 4f e3 3e
       -0.47198653 0.41088712 0.08633226 0.4439668

weight f4 [8, 16]
000000 10 74 3a 3e 5c 58 66 3e a0 5f 16 3e dc 81 05 3e
       0.18208337 0.22494644 0.14684916 0.13037819
000010 80 b7 7f 3d 20 d9 4b 3e 30 2c 1e 3e cc 50 03 3e
       0.06243086 0.19907045 0.15446544 0.1282379
000020 28 e0 39 bd 30 fa 1b be e8 83 46 bd f8 3c 6e 3d
       -0.045379788 -0.15232158 -0.04846564 0.058163613
000030 32 78 4b 3e 84 b3 04 3e 38 82 cd 3d 80 e3 34 bc
       0.1987007 0.12959105 0.10034603 -0.011040568
000040 6c 04 ed bd 8c 02 06 be 38 13 6c 3e 4e 26 63 3e
       -0.11573109 -0.13086909 0.23054206 0.22182581
000050 8c 68 4e 3e 90 95 99 3c ee ed 27 3e fe 9b 3e be
       0.20157069 0.018748075 0.16399357 -0.18614194
000060 10 2f 4d be aa 01 1a 3e ee ea 1c 3e 08 bd 90 bd
       -0.20037484 0.15039697 0.15323994 -0.07067305
000070 30 d4 84 3d ee a8 4c 3e e8 6f ff 3d 10 fc 04 3e
       0.06485784 0.19986317 0.12472516 0.12986779
000080 68 28 5b be 44 c1 d9 3d 40 15 6b bd 78 52 7c bd
       -0.21402133 0.106325656 -0.057393312 -0.061602086
000090 76 c1 5b be 48 85 29 3d a6 d8 1a be 74 a3 9a bd
       -0.21460518 0.041386873 -0.15121707 -0.075507075
0000a0 1e 69 07 3e d0 de 2d 3d b0 dd 5e 3e 20 dd 0f bc
       0.13223693 0.04244882 0.21764255 -0.008780748
0000b0 da fc 73 3e d2 6c 3b 3e 28 88 5d bd 80 b3 4f 3c
       0.23826924 0.1830323 -0.054084927 0.0126770735
0000c0 f0 14 32 3e bc 6f 84 bd c0 a6 0e 3c a6 92 03 be
       0.173908 -0.06466624 0.0087067485 -0.1284891
0000d0 68 23 16 3d c0 45 18 bc 58 b1 58 3e 40 e5 20 3c
       0.03665486 -0.009293973 0.21161401 0.009820282
0000e0 00 3c 0f 3b 2e a6 3e 3e 88 63 24 be 42 6e 7b be
       0.002185583 0.1861808 -0.16053593 -0.24553779
0000f0 c0 d7 68 3c 04 5d 91 3d f0 7f 68 3e 24 26 f7 bd
       0.014211595 0.070978194 0.22705054 -0.120678216
000100 04 6a c7 bd f0 20 27 be d0 1c 52 bd 34 dd a6 bd
       -0.09737018 -0.16321158 -0.05129701 -0.0814766
000110 30 6a 12 3e a4 d6 9f 3d 9c 1b c3 bd 24 ba a6 bd
       0.1429832 0.07804611 -0.095267504 -0.08140972
000120 b6 d2 56 be ba 4a 16 be 48 a7 d4 3d 20 17 19 3e
       -0.20978817 -0.14676943 0.10383469 0.14950228
000130 74 50 a0 bd b8 0a 24 bd 46 5c 75 be a0 d3 80 3c
       -0.07827845 -0.040049285 -0.23960981 0.01572591
000140 5c cc b8 bd 10 c3 d6 bc b0 2e df 3d 5c a7 ff 3d
       -0.090233535 -0.02621606 0.10897577 0.12483093
000150 a6 84 5a be e8 f2 04 be 94 ee e8 3d e0 ec b6 3c
       -0.21339664 -0.12983286 0.1137363 0.022329748
000160 70 ec 37 3d d8 76 57 3d b4 4c e8 3d 90 03 54 bd
       0.04490322 0.052603573 0.11342755 -0.05176121
000170 e8 c0 18 3e 0e 44 11 3e bc f0 2c 3e 18 6e 39 bd
       0.14917338 0.14186117 0.16888708 -0.04527101
000180 ec 05 12 be 2e b0 17 3e 8c d7 f9 bd 5c df 60 3e
       -0.14260072 0.14813301 -0.121993154 0.21960205
000190 60 23 52 bc a0 55 55 3d 4c 02 3f 3e 2e f0 4a be
       -0.012825817 0.05208361 0.1865322 -0.19818184
0001a0 92 48 71 3e 14 f0 b8 bd 34 d5 dc bd 40 4c 8f bd
       0.2356284 -0.09030166 -0.10782853 -0.069969654
0001b0 20 8c a0 3c 08 da fa 3d 98 6a 31 3e e2 a1 62 3e
       0.019598067 0.122486174 0.17325819 0.22132066
0001c0 7c bd b5 3d 54 ea c1 bd 56 e6 19 3e 96 0c 49 be
       0.08874032 -0.09468523 0.15029272 -0.19633707
0001d0 90 e1 ff 3c 98 f5 18 3e 18 0b 94 3d 24 b9 39 be
       0.031235486 0.14937437 0.072286785 -0.18137032
0001e0 20 19 b4 3d e6 7c 16 3e a8 a1 ca 3d e0 c0 2e 3e
       0.08793855 0.14696082 0.09894115 0.17065763
0001f0 44 53 70 3e 5c 1b bf 3d 48 da 3a be 46 7c 06 be
       0.23469263 0.0933139 -0.1824733 -0.13133344

bias f4 [8]
000000 38 61 a7 bd d8 dd 3d be b4 05 d1 3d a0 77 50 3e
       -0.0817284 -0.18541658 0.10206166 0.20358133
000010 10 65 15 bd f0 88 4d be 86 a4 67 be 08 03 2a bd
       -0.036473334 -0.20071769 -0.22621354 -0.041506797

weight f4 [1, 8]
000000 54 3f d8 3d 89 c6 9e 3e d7 5e 8d 3e 20 e7 92 bc
       0.10558954 0.31010845 0.2761142 -0.017932475
000010 45 e0 a1 3e 12 70 b3 be 2e 7a 12 be 00 40 c4 39
       0.31616417 -0.3504644 -0.1430442 0.00037431717
