modelV2/best_model.pth (torch, 22242 bytes, 19 tensors)

fc1.weight f4 [64, 9]
0.07320376 0.012311954 -0.011272966 -0.000977457 0.023501983 0.49693644 0.065973125 0.06021002
0.37103772 -0.18644114 -0.041813258 0.03835711 0.031948995 0.06883321 -0.29927048 -0.02093101
-0.30697033 -0.4809984 0.28096592 -0.07032045 -0.0024348453 0.054578125 0.028570868 0.29394877
-0.0043806154 0.13541688 0.4957153 0.09782583 0.16894405 0.058345065 0.0393807 0.004472871
0.45594025 0.020374907 0.027925642 0.47273687 0.07825484 0.104953706 0.046314094 -0.007802653
-0.010900018 0.4387568 0.00632777 -0.006347222 0.4231601 0.12685643 0.0014537275 -0.05819301
-0.028596543 -0.0066191694 0.36743617 0.0755034 0.086002775 0.4229664 0.07465181 0.022791963
0.009891996 -0.011499731 -0.0034275663 0.4506275 0.04082169 0.015102751 0.4379838 0.023815928
-0.11082457 0.047816217 -0.00058539695 0.052575298 0.4359877 0.014738034 0.05142079 0.3902864
0.11195395 0.016869595 0.013132184 0.023715384 -0.004582623 0.47145686 0.08820714 0.05657213
0.40232158 0.0034815487 0.088478886 0.07394043 0.040796224 0.06535217 -0.22075607 0.07566204
-0.1985238 0.643568 0.052084822 0.13091391 -0.073601834 -0.011217878 0.0047150236 0.43759307
0.009841044 -0.057344217 0.48314592 -0.3686528 0.014446371 0.013424622 0.009094546 -0.018209808
-0.23960914 -0.13861154 -0.22611968 -0.35457274 0.075700484 -0.049092054 -0.043768615 -0.0017372613
-0.029446261 0.507042 -0.087921925 0.09655918 0.43071404 -0.118431844 -0.13615066 0.075694904
0.122600734 -0.14095712 0.32991108 0.032286424 0.11277949 0.45845705 0.125946 -0.042991903
0.01694316 -0.0022658026 -0.033306114 0.3766877 0.03733875 0.075145796 0.4331714 0.0327191
-0.20415935 0.07074584 0.070638984 -0.04255391 0.21745528 -0.26072225 0.00558998 -0.6751691
0.13238448 -0.07438659 -0.056924213 0.048727576 -0.0077027353 0.15967068 0.0034692893 0.107823916
-0.8443663 0.16286345 0.11365122 -0.012324159 -0.017809054 0.042084303 0.18600772 0.09166884
0.16833958 -0.5972023 0.13007958 0.009710515 -0.008439731 -0.0031252743 0.002970019 0.46792412
-0.04882155 0.08910904 0.4180562 0.081729844 0.017204909 0.040779755 0.023539469 0.009198589
0.5302267 0.07199016 0.039147835 0.42601764 -0.19353928 -0.067009896 -0.00020892904 -0.037203044
-0.023643363 -0.42475775 -0.13210124 -0.12804115 -0.43534297 0.20870788 0.005005583 0.07513398
-0.04212943 0.026442101 0.37358162 -0.013173561 0.117833056 0.5131131 -0.105351865 -0.025615232
-0.032048143 0.005468289 0.0004131236 -0.47504142 -0.054019574 -0.08681122 -0.3053452 0.14244696
0.057268158 0.005945163 0.011502192 0.015694503 0.3553621 0.1101888 0.15185633 0.41041788
-0.27443105 -0.11311471 -0.030125812 -0.0333026 -0.021403097 0.5527306 -0.03191697 -0.17425627
0.4194299 -0.19789502 -0.049664658 -0.017457703 -0.04610287 -0.03636983 -0.4322921 -0.12276004
-0.12447106 -0.43268758 0.11242106 -0.050393406 0.017881665 -0.035715412 -0.022750776 -0.7661949
0.018037617 0.0664457 -0.17403679 0.18505049 -0.00020971723 0.07713645 -0.037795797 0.007971152
0.45052174 0.03519776 0.108038396 0.56021315 -0.18880777 -0.04326986 0.0012599257 -0.049526747
00000000: daeb 953d 14b8 493c 3fb2 38bc 041e 80ba
00000010: 3b87 c03c 746e fe3e eb1c 873d c89e 763d
00000020: a8f8 bd3e 6dea 3ebe 6144 2bbd 581c 1d3d
00000030: f3dc 023d 6df8 8c3d fb39 99be 8277 abbc
00000040: 372b 9dbe 6c45 f6be c4da 8f3e 2b04 90bd
00000050: ed91 1fbb 508d 5f3d 740d ea3c 7480 963e
00000060: 448b 8fbb b9aa 0a3e 65ce fd3e e958 c83d
00000070: abff 2c3e 3cfb 6e3d a84d 213d 2991 923b
00000080: 0071 e93e 47e9 a63c 51c4 e43c 910a f23e
00000090: 1344 a03d f8f1 d63d d9b3 3d3d 66ad ffbb
000000a0: fd95 32bc bba4 e03e 2f59 cf3b 5bfc cfbb
000000b0: 71a8 d83e a7e6 013e 008b be3a cb5b 6ebd
000000c0: 4c43 eabc 9ee5 d8bb 9820 bc3e 87a1 9a3d
000000d0: 3922 b03d 0d8f d83e 0ce3 983d 36b6 ba3c
000000e0: 0a12 223c 5e69 3cbc 05a1 60bb a6b8 e63e
000000f0: a534 273d 8771 773c 6a3f e03e 9f19 c33c
00000100: fef7 e2bd f0da 433d 5375 19ba 3259 573d
00000110: c839 df3e cc77 713c 9b9e 523d 9ed3 c73e
00000120: 1d48 e53d 1b32 8a3c 5f28 573c c446 c23c
00000130: d429 96bb cb62 f13e f2a5 b43d 2eb8 673d
00000140: 18fd cd3e b22a 643b 6b34 b53d 156e 973d
00000150: f119 273d 5cd7 853d e10d 62be b3f4 9a3d
00000160: d349 4bbe dfc0 243f e556 553d 4c0e 063e
00000170: 8fbc 96bd 31cb 37bc 7c80 9a3b 330c e03e
00000180: 553c 213c c5e1 6abd e75e f73e 0fc0 bcbe
00000190: 79b0 6c3c f2f2 5b3c 4a01 153c bc2c 95bc
000001a0: 195c 75be 2ff0 0dbe eb8b 67be 8f8a b5be
000001b0: db08 9b3d c014 49bd b846 33bd d1b4 e3ba
000001c0: 4939 f1bc 81cd 013f 6910 b4bd d2c0 c53d
000001d0: 8d86 dc3e 658c f2bd 146b 0bbe ee05 9b3d
000001e0: 1816 fb3d 1057 10be 1bea a83e c53e 043d
000001f0: eff8 e63d e2ba ea3e fdf7 003e 4718 30bd
00000200: 62cc 8a3c dc7d 14bb fe6b 08bd 36dd c03e
00000210: 84f0 183d 0ae6 993d a4c8 dd3e 7704 063d
00000220: 260f 51be 32e3 903d 2cab 903d 024d 2ebd
00000230: 99ac 5e3e 637d 85be 272c b73b e2d7 2cbf
00000240: cc8f 073e ff57 98bd 5d29 69bd 9196 473d
00000250: 3a67 fcbb b680 233e 045d 633b c9d2 dc3d
00000260: 6428 58bf adc5 263e f9c1 e83d 45eb 49bc
00000270: 4be4 91bc 9760 2c3d cf78 3e3e dfbc bb3d
00000280: 3661 2c3e 40e2 18bf 9533 053e da18 1f3c
00000290: cc46 0abc 67d1 4cbb a6a4 423b c093 ef3e
000002a0: 1bf9 47bd cd7e b63d 760b d63e fa61 a73d
000002b0: 4ff1 8c3c ac08 273d d8d5 c03c aeb5 163c
000002c0: f0bc 073f 946f 933d 7b59 203d fc1e da3e
000002d0: 292f 46be 7c3c 89bd f613 5bb9 3862 18bd
000002e0: baaf c1bc d979 d9be 8c45 07be 381d 03be
000002f0: 46e5 debe 85b7 553e e005 a43b d8df 993d
00000300: e98f 2cbd 1b9d d83c 1746 bf3e ebd5 57bc
00000310: 7552 f13d 615b 033f b8c2 d7bd 09d7 d1bc
00000320: ea44 03bd 552f b33b 8398 d839 a138 f3be
00000330: a143 5dbd 15ca b1bd 3556 9cbe 9edd 113e
00000340: 0492 6a3d a4cf c23b b173 3c3c c291 803c
00000350: 05f2 b53e aaaa e13d 3a80 1b3e 4b22 d23e
00000360: 3a82 8cbe afa8 e7bd 68ca f6bc 4f68 08bd
00000370: 8c55 afbc c17f 0d3f 5ebb 02bd 3c70 32be
00000380: 84bf d63e fea4 4abe 2b6d 4bbd 7503 8fbc
00000390: 5dd6 3cbd 88f8 14bd 6455 ddbe 9e69 fbbd
000003a0: afea febd 3a89 ddbe 033d e63d 5169 4ebd
000003b0: 927c 923c 534a 12bd d65f babc 5925 44bf
000003c0: a0c3 933c af14 883d b336 32be e07d 3d3e
000003d0: 8ae7 5bb9 b7f9 9d3d c4cf 1abd 6f99 023c
000003e0: c9aa e63e 872b 103d 3c43 dd3d 216a 0f3f
000003f0: d356 41be bd3b 31bd 1724 a53a 8fdc 4abd

fc1.bias f4 [64]
-0.1449718 -0.07467696 0.2664179 -0.02826466 0.026981154 0.057871174 -0.0992353 -0.14597136
0.14917603 -0.2195802 0.22649173 -0.050806142 -0.10440066 -0.24050373 0.024976056 0.009077664
-0.11418335 -0.25376785 0.00077711494 0.09182009 0.023202905 0.15162559 0.107247874 -0.26958537
-0.21368931 -0.12956722 -0.13253754 -0.09948364 0.20591311 0.050288122 0.2079981 -0.08318115
0.03737248 -0.12500769 0.17826205 0.19819117 -0.21477684 0.23682265 -0.1427114 0.19056298
0.08842474 -0.061585795 -0.044068646 0.031965505 0.17466514 0.026677437 0.22953878 0.27392069
-0.09247752 -0.009876094 -0.052220855 0.100080386 -0.22031821 0.0013227651 -0.16781658 0.18492913
-0.17419413 0.20221017 0.008268655 0.15082368 -0.24134816 0.07256751 -0.12342221 -0.25093958
00000000: 7d73 14be 3cf0 98bd ed67 883e 4a8b e7bc
00000010: 9507 dd3c 530a 6d3d e13b cbbd 8479 15be
00000020: 9ac1 183e a2d9 60be 73ed 673e 1a1a 50bd
00000030: 03d0 d5bd 9c46 76be 969a cc3c 7cba 143c
00000040: f6d8 e9bd dced 81be 4db7 4b3a 2c0c bc3d
00000050: 0514 be3c bd43 1b3e c6a4 db3d 1807 8abe
00000060: 5fd1 5abe 45ad 04be ecb7 07be 14be cbbd
00000070: e3da 523e ebfa 4d3d 74fd 543e e15a aabd
00000080: e313 193d 0402 00be 548a 363e a0f2 4a3e
00000090: 76ee 5bbe a381 723e f022 12be f122 433e
000000a0: 0818 b53d 6341 7cbd 5381 34bd 43ee 023d
000000b0: 6bdb 323e a48a da3c 370c 6b3e 553f 8c3e
000000c0: db64 bdbd 57cf 21bc 89e5 55bd f2f6 cc3d
000000d0: 199b 61be a260 ad3a 1cd8 2bbe 105e 3d3e
000000e0: f25f 32be 2f10 4f3e 4179 073c 8671 1a3e
000000f0: f923 77be 469e 943d c9c4 fcbd 277b 80be

fc2.weight f4 [32, 64]
-0.12998942 0.32430106 -0.025737382 -0.107105546 -0.11520369 -0.07466408 0.10183121 0.02086118
0.114162475 -0.1824887 -0.12281889 0.064904355 -0.19863038 -0.123993464 -0.11318986 0.2696746
0.016909584 0.16465013 0.11089667 -0.021146705 -0.7604668 -0.13155961 0.08022686 -0.100944884
-0.0043647694 -0.5420306 0.14496759 0.027105993 -0.6771074 -0.016161699 0.053622708 -0.009606034
0.02206642 -0.23585825 -0.120455876 -0.14563994 -0.039018143 0.0587626 -0.044421542 0.081565544
-0.81683993 -0.67822015 -0.13953023 0.018641895 0.034257784 -0.0042750114 -0.045229986 -0.13685003
-0.03617743 -0.024441855 -0.6252695 0.04261714 -0.019557772 0.034594245 -0.61312044 0.14469792
-0.11558202 0.04914519 -0.14464311 0.042571597 0.06778242 -0.04574622 0.019943632 -0.08185088
0.03753813 0.36618945 -0.04787416 0.21814567 -0.07475385 -0.06652902 0.034095697 0.06685283
-0.060103785 -0.2862943 -0.028497454 0.03373458 0.09040804 -0.23160346 -0.047111638 0.2331922
0.19673114 0.18192866 -0.09147996 -0.11013214 -0.77644837 0.019966112 0.0091715 -0.11335586
0.09292808 -0.5465303 -0.015702158 -0.027206175 -0.7486566 0.102475174 0.21246825 -0.063689396
0.10332387 -0.24994417 -0.1961049 -0.018659934 -0.16832164 0.055076122 -0.08504433 0.010975153
-0.7533074 -0.624444 -0.15774412 -0.1803082 0.07918326 -0.15062258 0.045127552 -0.028254144
-0.01736715 -0.055577975 -0.5930185 -0.07977053 -0.016978957 -0.073715255 -0.5744338 -0.022178467
-0.014127581 0.038559195 -0.06836325 0.106513746 0.037693463 0.009047466 0.14825463 -0.17968142
-0.044245295 0.25828055 -0.10515032 -0.117464684 -0.07221956 0.00427452 -0.013408454 -0.107181035
0.0023785776 -0.23966652 -0.094279744 -0.0392524 -0.1211605 -0.03132307 -0.032990947 0.23887932
0.10717304 0.20744985 0.0408457 0.026160503 -0.7865444 -0.02044431 -0.068767086 0.025630435
-0.0090679675 -0.611975 0.0101435 0.0032995977 -0.81175095 0.08459159 0.20262 0.0055661118
0.044472553 -0.11726936 -0.10152662 -0.1325059 -0.28791556 0.13390997 -0.13435431 0.06306054
-0.9048244 -0.78067714 0.029130097 -0.26831353 0.061898436 -0.15745826 0.09545261 -0.008032743
0.11967566 -0.14946197 -0.75099117 -0.31343916 -0.079874665 -0.14419515 -0.79732835 -0.016510634
-0.062425993 0.12534194 -0.15646142 0.18942225 0.13476641 -0.058186192 0.0965747 -0.27721912
-0.09372485 0.65836287 -0.040223733 -0.25558823 -0.07649154 -0.06538166 -0.056221027 -0.026661005
-0.05997076 -0.1401808 0.0042791925 0.17921375 0.008697003 -0.0045709144 0.37848577 0.23598938
0.12810963 0.06624228 0.026573984 0.03083388 -0.35322076 -0.101462595 0.1843481 -0.10597234
-0.06549543 0.010467529 0.12050728 -0.09212364 -0.3043604 0.060241986 0.090361066 -0.048948757
-0.004973449 0.045695942 -0.08494782 -0.025635878 -0.036558904 0.23076205 -0.05661994 -0.042418603
-0.3684355 -0.21053866 -0.10963904 -0.023883414 0.061756026 0.12957463 0.090442725 0.0058976556
-0.007295991 0.04620991 -0.09929741 -0.014543872 -0.024063388 0.064136624 -0.21646242 0.38918105
0.007592902 0.06314 -0.14081362 0.009349948 -0.019683095 -0.04622871 -0.014815879 -0.010404584
00000000: f21b 05be ca0a a63e 34d7 d2bc 275a dbbd
00000010: eaef ebbd 7be9 98bd e28c d03d 11e5 aa3c
00000020: 04ce e93d 51de 3abe 7888 fbbd 93ec 843d
00000030: c365 4bbe 49f0 fdbd 16d0 e7bd ca12 8a3e
00000040: f885 8a3c 0b9a 283e cb1d e33d db3b adbc
00000050: f4ad 42bf 90b7 06be fb4d a43d 31bc cebd
00000060: 5706 8fbb 84c2 0abf 6272 143e 630d de3c
00000070: e956 2dbf 8a65 84bc 7ca3 5b3d a062 1dbc
00000080: a3c4 b43c d384 71be 92b1 f6bd a322 15be
00000090: 7dd1 1fbd 0db1 703d 5df3 35bd d60b a73d
000000a0: 6c1c 51bf d69f 2dbf 03e1 0ebe e3b6 983c
000000b0: e451 0c3d 6515 8cbb 1443 39bd 6a22 0cbe
000000c0: c92e 14bd 493a c8bc a911 20bf 4f8f 2e3d
000000d0: 9f37 a0bc b2b2 0d3d 76f5 1cbf b12b 143e
000000e0: 44b6 ecbd 774c 493d 531d 14be 8e5f 2e3d
000000f0: 82d1 8a3d 6360 3bbd d460 a33c 6fa1 a7bd
00000100: 95c1 193d 2f7d bb3e b217 44bd 9461 5f3e
00000110: 8c18 99bd 5e40 88bd eea7 0b3d 23ea 883d
00000120: 632f 76bd 2b95 92be 7e73 e9bc 452d 0a3d
00000130: da27 b93d 7529 6dbe 22f8 40bd f0c9 6e3e
00000140: e373 493e 824b 3a3e d859 bbbd f68c e1bd
00000150: 52c5 46bf f98f a33c 0f44 163c 1e27 e8bd
00000160: 1451 be3d 69e9 0bbf d0a1 80bc 7cdf debc
00000170: f5a7 3fbf 81de d13d 4791 593e 966f 82bd
00000180: 779b d33d 5df1 7fbe b9cf 48be b8dc 98bc
00000190: 825c 2cbe 8097 613d b92b aebd 21d1 333c
000001a0: c1d8 40bf 90db 1fbf ad87 21be b6a2 38be
000001b0: d52a a23d ce3c 1abe abd7 383d 3c75 e7bc
000001c0: 8e45 8ebc bba5 63bd 0fd0 17bf bb5e a3bd
000001d0: 7417 8bbc 06f8 96bd 180e 13bf 9eaf b5bc
000001e0: 5f77 67bc 3ff0 1d3d 0802 8cbd e123 da3d
000001f0: 7664 1a3d d33b 143c 10d0 173e 68fe 37be
00000200: 8e3a 35bd 593d 843e 0d59 d7bd 5391 f0bd
00000210: d9e7 93bd 4611 8c3b 22af 5bbc bb81 dbbd
00000220: e9e1 1b3b 246b 75be bd15 c1bd 20c7 20bd
00000230: ff22 f8bd 9f4c 00bd 8421 07bd c89c 743e
00000240: 8a7d db3d bc6d 543e d24d 273d 8d4e d63c
00000250: f95a 49bf d37a a7bc c2d5 8cbd ebf6 d13c
00000260: d091 14bc 65aa 1cbf ec30 263c 103e 583b
00000270: e9ce 4fbf 5b3e ad3d 9e7b 4f3e ee63 b63b
00000280: da28 363d eb2a f0bd 30ed cfbd a0af 07be
00000290: ab69 93be b21f 093e 2d94 09be e225 813d
000002a0: 92a2 67bf 75da 47bf 3ea2 ee3c 6460 89be
000002b0: 3789 7d3d bd3c 21be a87c c33d c49b 03bc
000002c0: 8318 f53d 8f0c 19be f540 40bf 197b a0be
000002d0: 5495 a3bd e5a7 13be b61d 4cbf 4f41 87bc
000002e0: 66b2 7fbd a359 003e 6c37 20be e8f7 413e
000002f0: 3500 0a3e a554 6ebd f5c8 c53d aaef 8dbe
00000300: d0f2 bfbd 788a 283f a4c1 24bd 76dc 82be
00000310: 99a7 9cbd d2e6 85bd 0548 66bd 2e68 dabc
00000320: e6a3 75bd 8e8b 0fbe 7838 8c3b cf83 373e
00000330: e07d 0e3c 9cc7 95bb e3c8 c13e 33a7 713e
00000340: 2c2f 033e 08aa 873d afb1 d93c 5597 fc3c
00000350: 5ad9 b4be 9fcb cfbd c0c5 3c3e 0708 d9bd
00000360: 7822 86bd 0080 2b3c 85cc f63d 52ab bcbd
00000370: 20d5 9bbe 4dc0 763d 390f b93d 7e7e 48bd
00000380: 50f8 a2bb ab2b 3b3d 1ff9 adbd 5502 d2bc
00000390: cabe 15bd e34c 6c3e 4fea 67bd 21bf 2dbd
000003a0: 94a3 bcbe 7297 57be 6f8a e0bd 26a7 c3bc
000003b0: e3f3 7c3d 36af 043e 093a b93d 1f41 c13b
000003c0: 3513 efbb 9a46 3d3d 715c cbbd 6c49 6ebc
000003d0: 9520 c5bc 105a 833d 53a8 5dbe bd42 c73e
000003e0: e1cd f83b 8b4f 813d 7231 10be 8630 193c
000003f0: 713e a1bc 515a 3dbd 4dbe 72bc fd77 2abc

fc2.bias f4 [32]
0.069667466 0.03756814 0.0025422566 0.08947099 -0.054463048 0.021405263 -0.031018758 0.049004093
-0.023946429 -0.06356027 -0.048187323 0.055190958 0.062403098 -0.02765588 0.06019497 -0.0438543
-0.03497976 0.046895485 0.043094452 0.041650046 0.021594616 -0.03629736 0.062341757 -0.03341999
-0.053314947 -0.026661424 -0.094399616 0.0067664883 0.118345395 0.06357508 -0.2077074 -0.028839448
00000000: d1ad 8e3d 0de1 193d fd9b 263b 913c b73d
00000010: a514 5fbd 175a af3c 0d1b febc 84b8 483d
00000020: 4d2b c4bc e32b 82bd 1260 45bd ea0f 623d
00000030: 649a 7f3d 968e e2bc 008f 763d 91a0 33bd
00000040: f046 0fbd 7b15 403d cf83 303d 3d99 2a3d
00000050: 31e7 b03c 8aac 14bd 125a 7f3d 66e3 08bd
00000060: c660 5abd 0f69 dabc 9654 c1bd 6bb9 dd3b
00000070: 125f f23d a733 823d 40b1 54be b540 ecbc

fc3.weight f4 [16, 32]
0.08645885 -0.04775268 0.12572101 0.06290642 0.07513205 0.056807783 0.040780846 0.08192081
0.0066248225 -0.06761683 0.11001478 -0.36685732 0.114791565 0.05565739 0.059750546 -0.45828223
-0.31474578 -0.3472046 0.055424266 0.021132361 -0.09744965 0.09984633 -0.35863024 0.07486339
0.07067221 -0.034681305 -0.4076752 0.07354429 -0.14318565 -0.13202235 -0.3203725 0.063482866
0.11755374 0.03515854 0.1213812 0.08561391 0.124698974 0.11818069 0.113764 0.11966575
0.0990886 -0.00062896503 0.1338523 -0.36491457 0.06568474 0.09441969 0.08640654 -0.6230328
-0.3428047 -0.3615071 0.0881867 0.040129274 -0.17348965 0.1267015 -0.3968568 0.08628122
0.10800147 0.049034324 -0.36966997 0.11734659 -0.16633461 -0.14386187 -0.27839133 0.101324655
-0.0149997445 0.097278796 0.02852361 0.030519446 0.0014198369 0.0040331883 -0.006076382 0.07223936
-0.017448073 0.0056205858 0.106295645 -0.39376992 0.08681501 0.0038829586 0.029010909 -0.5644294
-0.45669207 -0.45594677 0.049089856 0.013532478 -0.12865056 0.072470665 -0.35047725 -0.014545003
0.098440826 0.021342823 -0.3934763 0.020081447 -0.1927603 -0.12933326 -0.40155327 0.0995688
0.024871401 0.07577121 0.051148318 0.021005874 -0.018417308 -0.05117414 -0.0190013 -0.016323807
-6.4080945e-05 0.076540254 0.1121144 -0.42591676 0.11530457 -0.005821154 -0.02578758 -0.4845774
-0.48570392 -0.4615656 0.017115284 0.047963127 -0.06747332 0.053815834 -0.26551715 0.0004728378
0.035036508 0.022358889 -0.37509707 0.0049880515 0.0061916215 -0.073985375 -0.41110262 0.08107734
0.086285196 0.09100004 0.13012199 0.095973276 0.14498977 0.083848886 0.09360422 0.13738993
0.063082226 0.081185915 0.12853248 -0.33237067 0.13580836 0.12882757 0.06858108 -0.50607944
-0.26350102 -0.29411015 0.0743573 0.11381131 -0.18690045 0.06329517 -0.33357185 0.079532735
0.13554811 0.083622046 -0.33655375 0.046930645 -0.18311329 -0.13621865 -0.31231803 0.12201561
0.017449195 0.042388797 0.26345226 0.1840889 0.15461299 0.10521469 0.08512539 0.15681778
0.1137259 0.01528078 0.16909625 -0.22126612 0.13729759 0.068021424 0.09167935 -0.5289301
-0.284523 -0.36016577 0.09087028 0.09910735 -0.16619635 0.10743831 -0.2933161 0.13898389
0.16148682 0.060209323 -0.32151446 0.16579165 -0.18433394 -0.16898766 -0.30526206 0.14312957
0.103029035 0.00611246 0.09921782 0.1520284 0.08476202 0.08422301 0.08142082 0.09064023
0.041787565 -0.027202565 0.12934698 -0.34202003 0.14068462 0.09142991 0.019355707 -0.5112481
-0.34418276 -0.48540094 0.06955091 0.058171753 -0.07745538 0.13344978 -0.2768291 0.04385092
0.1268533 0.026303599 -0.3792748 0.025940763 -0.07983053 -0.12149075 -0.37200356 0.0694321
0.13592197 -0.021204015 0.13239549 0.17159082 0.11957292 0.17086123 0.15529804 0.15555415
0.1111026 0.044260472 0.1139461 -0.2984044 0.10090511 0.05956957 0.12843119 -0.5728737
-0.27493748 -0.3939115 0.119189516 0.0924744 -0.21638638 0.055288322 -0.41918677 0.038061723
0.18127838 0.05096151 -0.3535373 0.11237501 -0.21360675 -0.1959216 -0.22534673 0.023346629
00000000: 5611 b13d 5098 43bd 02bd 003e 15d5 803d
00000010: d5de 993d 47af 683d d109 273d 19c6 a73d
00000020: 0a15 d93b b17a 8abd 6e4f e13d b9d4 bbbe
00000030: d717 eb3d 01f9 633d fdbc 743d f8a3 eabe
00000040: 5c26 a1be cdc4 b1be 8e04 633d c61d ad3c
00000050: af93 c7bd 3c7c cc3d 629e b7be fa51 993d
00000060: 97bc 903d fc0d 0ebd ceba d0be 649e 963d
00000070: 429f 12be de30 07be dd07 a4be 4e03 823d
00000080: 04c0 f03d 6702 103d b596 f83d 5856 af3d
00000090: 2d62 ff3d b808 f23d 1afd e83d 5113 f53d
000000a0: f7ee ca3d 21e1 24ba 9410 093e 15d6 babe
000000b0: b985 863d 1c5f c13d e9f5 b03d 147f 1fbf
000000c0: 1984 afbe 7517 b9be 3b9b b43d 985e 243d
000000d0: 45a7 31be 0abe 013e d130 cbbe 35b4 b03d
000000e0: e02f dd3d 37d8 483d 6245 bdbe 6953 f03d
000000f0: 9f53 2abe 8750 13be 4f89 8ebe 4d83 cf3d
00000100: 7dc1 75bc 1b3a c73d 59aa e93c eb03 fa3c
00000110: d219 ba3a d628 843b 631c c7bb 3bf2 933d
00000120: 43ef 8ebc e42c b83b 88b1 d93d 369c c9be
00000130: 11cc b13d 3c79 7e3b 49a8 ed3c 727e 10bf
00000140: 8bd3 e9be db71 e9be 7212 493d 54b7 5d3c
00000150: f9bc 03be 806b 943d c171 b3be 2a4e 6ebc
00000160: 589b c93d 25d7 ae3c ba75 c9be d981 a43c
00000170: f562 45be f06f 04be 6498 cdbe baea cb3d
00000180: 1cbf cb3c f02d 9b3d e680 513d 8314 ac3c
00000190: e5df 96bc fa9b 51bd 9da8 9bbc 81b9 85bc
000001a0: 3263 86b8 23c1 9c3d 3c9c e53d c311 dabe
000001b0: cd24 ec3d 61bf bebb 7a40 d3bc 871a f8be
000001c0: 2fae f8be 5452 ecbe 5a35 8c3c fc74 443d
000001d0: 742f 8abd fe6d 5c3d ddf1 87be 37e7 f739
000001e0: 7182 0f3d fd29 b73c b90c c0be cf72 a33b
000001f0: 16e3 ca3b a585 97bd 0b7c d2be e00b a63d
00000200: 4bb6 b03d 3b5e ba3d b33e 053e a38d c43d
00000210: 3378 143e f7b8 ab3d 92b3 bf3d f2af 0c3e
00000220: 4131 813d cd44 a63d 059e 033e 7d2c aabe
00000230: 5911 0b3e 60eb 033e 3d74 8c3d 6c8e 01bf
00000240: 9be9 86be 9b95 96be a448 983d e715 e93d
00000250: d562 3fbe e6a0 813d eec9 aabe 0fe2 a23d
00000260: 20cd 0a3e 0942 ab3d c650 acbe 593a 403d
00000270: 0d82 3bbe e77c 0bbe 26e8 9fbe 52e3 f93d
00000280: 9df1 8e3c e09f 2d3d 37e3 863e cd81 3c3e
00000290: de52 1e3e cd7a d73d 3856 ae3d d794 203e
000002a0: 20e9 e83d 3d5c 7a3c 9127 2d3e 9693 62be
000002b0: bd97 0c3e d14e 8b3d 62c2 bb3d f767 07bf
000002c0: 00ad 91be a667 b8be 331a ba3d cbf8 ca3d
000002d0: 602f 2abe 9e08 dc3d 872d 96be cb51 0e3e
000002e0: cd5c 253e 0d9e 763d 8b9d a4be 49c5 293e
000002f0: 09c2 3cbe 1a0b 2dbe 4f4b 9cbe 8f90 123e
00000300: e300 d33d 084b c83b b632 cb3d 55ad 1b3e
00000310: b697 ad3d 1d7d ac3d f5bf a63d 96a1 b93d
00000320: 7029 2b3d ead7 debc 8973 043e 401d afbe
00000330: a10f 103e 9b3f bb3d dc8f 9e3c 28e1 02bf
00000340: b938 b0be 7986 f8be b570 8e3d 8145 6e3d
00000350: eda0 9ebd 0fa7 083e 8bbc 8dbe 069d 333d
00000360: d5e5 013e a57a d73c 4e30 c2be b981 d43c
00000370: 307e a3bd 24d0 f8bd 4077 bebe 6b32 8e3d
00000380: 212f 0b3e 0bb4 adbc af92 073e 81b5 2f3e
00000390: a6e2 f43d 3ff6 2e3e 7306 1f3e 9649 1f3e
000003a0: c389 e33d 784a 353d 935c e93d 76c8 98be
000003b0: 57a7 ce3d 39ff 733d 7783 033e daa7 12bf
000003c0: 9bc4 8cbe c5ae c9be a219 f43d 3863 bd3d
000003d0: 6494 5dbe 0276 623d a69f d6be 9ce6 1b3d
000003e0: 0aa1 393e 04bd 503d d702 b5be df24 e63d
000003f0: babb 5abe ac9f 48be 4bc1 66be 6e41 bf3c

fc3.bias f4 [16]
0.44262648 0.51651895 0.38748226 0.73525816 0.42375264 0.6045837 0.41947034 0.38533577
0.6524543 0.41442075 0.48412466 0.36032134 0.57495916 0.42202637 0.74189246 0.38446152
00000000: f09f e23e 963a 043f 1364 c63e e139 3c3f
00000010: 1bf6 d83e ffc5 1a3f d1c4 d63e bb4a c53e
00000020: 3f07 273f f52e d43e 30df f73e 0a7c b83e
00000030: 8630 133f d713 d83e aaec 3d3f 24d8 c43e

fc4.weight f4 [1, 16]
11.251773 11.93113 11.251868 11.802576 11.844055 11.248574 11.28639 11.789277
11.376227 11.430083 11.884936 11.412291 11.890058 11.93924 11.390532 11.375371
00000000: 4307 3441 e9e5 3e41 a707 3441 5ad7 3c41
00000010: 4081 3d41 29fa 3341 0e95 3441 e1a0 3c41
00000020: 0705 3641 9fe1 3641 b328 3e41 be98 3641
00000030: ad3d 3e41 2107 3f41 9e3f 3641 8501 3641

bn1.weight f4 [64]
0.2447588 0.26772362 0.5053097 0.65850115 0.54271924 0.55314654 0.5377894 0.62161356
0.46205553 0.25722113 0.49167597 0.34771335 0.5903649 0.38751307 0.50250614 0.22021648
0.22696517 0.2598271 0.26530477 0.3055412 0.7082598 0.4591151 0.52004266 0.3183925
0.6024402 0.47952867 0.23681104 0.43233263 0.4533838 0.3556343 0.13762166 0.49731365
0.69805366 0.3679413 0.32543325 0.34428066 0.36289155 0.52817845 0.38418218 0.300398
0.6371561 0.616644 0.6658255 0.35740983 0.34776142 0.41925988 0.40531835 0.29993236
0.49252757 0.27330428 0.6083004 0.47695088 0.44369385 0.3725308 0.7668755 0.55283904
0.3300748 0.4231289 0.43428484 0.3895083 0.5576011 0.39006898 0.4124466 0.33263108
00000000: 0da2 7a3e 1213 893e fa5b 013f 8893 283f
00000010: a6ef 0a3f 039b 0d3f 91ac 093f 1122 1f3f
00000020: 8b92 ec3e 7db2 833e f4bc fb3e 7c07 b23e
00000030: 2722 173f 1d68 c63e 3ea4 003f 6e80 613e
00000040: 8f69 683e 0f08 853e 07d6 873e e56f 9c3e
00000050: 8450 353f 2211 eb3e 8421 053f 5704 a33e
00000060: 8539 1a3f c884 f53e 987e 723e b45a dd3e
00000070: ec21 e83e b315 b63e b1ec 0c3e e59f fe3e
00000080: a5b3 323f cd62 bc3e 309f a63e 8e45 b03e
00000090: eccc b93e b436 073f 87b3 c43e c4cd 993e
000000a0: aa1c 233f 62dc 1d3f 8a73 2a3f 6cfe b63e
000000b0: c90d b23e 3ba9 d63e e385 cf3e bc90 993e
000000c0: 932c fc3e 8aee 8b3e 93b9 1b3f e832 f43e
000000d0: d72b e33e 5bbc be3e f451 443f dc86 0d3f
000000e0: 90ff a83e 5aa4 d83e 955a de3e a26d c73e
000000f0: f2be 0e3f 1fb7 c73e 332c d33e 9f4e aa3e

bn1.bias f4 [64]
0.44407228 -0.6246564 -0.19616215 0.00736668 -0.12526657 0.8163931 0.8406226 0.091982834
0.84247994 -0.41779858 -0.107663654 0.06359309 -0.029597614 0.13149571 0.8450487 -0.29941577
-0.066001445 -0.22603531 0.48830324 0.5796249 -1.0911447 -0.10296078 -0.082630195 0.6172553
-0.2112833 -0.67824304 0.14440027 0.68700486 -0.7323964 0.08606501 0.087461285 -0.018586302
0.1725463 -0.54619646 -0.19873908 0.02015711 -0.16957135 -0.4338098 -0.35337338 0.59421843
-0.9680174 -1.0024024 0.025116457 -0.15266462 -0.42836052 -0.36996186 -0.15893792 -0.0576926
-0.037540957 -0.20963836 -0.93085146 -0.26387572 -0.3080047 -0.15071012 -1.205944 0.34082547
-0.07328461 0.118508294 -0.28539228 -0.06530935 -0.2079999 -0.20224148 -0.17266904 -0.36362645
00000000: 715d e33e 7be9 1fbf bbde 48be 3164 f13b
00000010: e145 00be 23ff 503f 0b33 573f 7f61 bc3d
00000020: c4ac 573f b2e9 d5be c37e dcbd 183d 823d
00000030: b276 f2bc d0a6 063e 1d55 583f 064d 99be
00000040: c42b 87bd cd75 67be e202 fa3e 4c62 143f
00000050: a1aa 8bbf 1add d2bd 053a a9bd 7104 1e3f
00000060: a65a 58be 56a1 2dbf aadd 133e 8ddf 2f3f
00000070: 557e 3bbf da42 b03d e71e b33d 4d42 98bc
00000080: faaf 303e 88d3 0bbf 4282 4bbe 8620 a53c
00000090: 1da4 2dbe 511c debe 5bed b4be b31e 183f
000000a0: fdcf 77bf b94e 80bf 07c1 cd3c 1d54 1cbe
000000b0: 1252 dbbe a46b bdbe 9fc0 22be 134f 6cbd
000000c0: 8cc4 19bd 70ab 56be 484c 6ebf b81a 87be
000000d0: cbb2 9dbe c153 1abe 5f5c 9abf ad80 ae3e
000000e0: 3e16 96bd 7ab4 f23d f01e 92be e9c0 85bd
000000f0: edfd 54be 6418 4fbe 27d0 30be 3f2d babe

bn1.running_mean f4 [64]
-0.14467861 0.118947625 0.33870482 0.17651537 0.084272474 -0.08398412 -0.11549766 -0.07888135
0.17190503 0.12957412 0.15957053 -0.028786737 -0.26548237 -0.24310276 -0.047953274 -0.016534137
-0.20576406 -0.19651154 -0.0327606 0.17691344 -0.098776184 0.20891604 0.09452532 -0.19983535
-0.4152201 -0.29246032 -0.16977796 -0.071768284 0.08186847 0.099740595 0.38714898 -0.2820018
-0.17542197 -0.15249367 0.060594507 -0.14714749 0.0042228624 0.23835199 -0.08151491 0.25999328
-0.04455786 -0.24168424 -0.2036792 -0.18793817 0.3746073 -0.03950171 0.81009173 0.36720952
0.002034212 0.062501684 -0.17883721 0.37837866 -0.34174535 0.27156264 -0.27670348 0.23339438
-0.013763812 0.13130984 0.3301078 0.11775591 -0.37423053 -0.10022045 -0.1263897 -0.31291094
00000000: a126 14be d09a f33d b86a ad3e 72c0 343e
00000010: 0c97 ac3d deff abbd 0a8a ecbd 8c8c a1bd
00000020: df07 303e 14af 043e 7566 233e 2ad2 ebbc
00000030: 4eed 87be eeef 78be a76a 44bd 9972 87bc
00000040: d0b3 52be 523a 49be fb2f 06bd cc28 353e
00000050: 2b4b cabd 16ee 553e 7e96 c13d a3a1 4cbe
00000060: bb97 d4be 5cbd 95be 46da 2dbe 40fb 92bd
00000070: a8aa a73d cc44 cc3d 6438 c63e 8a62 90be
00000080: d1a1 33be 4d27 1cbe f231 783d d5ad 16be
00000090: f05f 8a3b 8b12 743e 4af1 a6bd d71d 853e
000000a0: 4d82 36bd 137c 77be 4891 50be dd72 40be
000000b0: 87cc bf3e 8ccc 21bd 2c62 4f3f e302 bc3e
000000c0: 6a50 053b e200 803d 1a21 37be d9ba c13e
000000d0: 3ff9 aebe 420a 8b3e 14ac 8dbe f0fe 6e3e
000000e0: 9d81 61bc 1676 063e e403 a93e 032a f13d
000000f0: 259b bfbe 6140 cdbd 4d6c 01be dd35 a0be

bn1.running_var f4 [64]
0.27060124 0.2919839 0.24511477 0.24669825 0.19025417 0.23957364 0.22855616 0.20283826
0.2862867 0.25801274 0.20791155 0.2976842 0.22057196 0.22691192 0.21861528 0.29898557
0.3234944 0.2246498 0.22024381 0.30744493 0.35552758 0.25162688 0.2455923 0.27580243
0.12414281 0.3563562 0.25713456 0.3371381 0.320025 0.10593784 0.1723374 0.16992098
0.20770234 0.1467338 0.742827 0.25918725 0.20541134 0.1808255 0.21763355 0.2024324
0.27926838 0.34765562 0.29845047 0.37753844 0.28309196 0.36274007 0.2585013 0.15137136
0.21963392 0.27270013 0.31682947 0.17190874 0.2611763 0.4651046 0.27989697 0.30496094
0.12492118 0.18243243 0.16975456 0.26469594 0.120801106 0.19926585 0.3331346 0.1877207
00000000: 3f8c 8a3e ea7e 953e 5eff 7a3e 779e 7c3e
00000010: fdd1 423e cb52 753e a00a 6a3e d5b4 4f3e
00000020: 2c94 923e 3f1a 843e c4e6 543e 106a 983e
00000030: 9edd 613e 995b 683e afdc 5f3e a314 993e
00000040: 0fa1 a53e 990a 663e 9887 613e 6c69 9d3e
00000050: b607 b63e 3dd5 803e 8c7c 7b3e fa35 8d3e
00000060: 963e fe3d 5274 b63e 24a7 833e 5d9d ac3e
00000070: 51da a33e f0f5 d83d 3779 303e c4ff 2d3e
00000080: ecaf 543e 6341 163e e929 3e3f 31b4 843e
00000090: 5a57 523e 522a 393e 54db 5e3e 704a 4f3e
000000a0: 44fc 8e3e ebff b13e 80ce 983e b84c c13e
000000b0: 6ef1 903e 11b9 b93e 485a 843e 1801 1b3e
000000c0: b7e7 603e 5a9f 8b3e 7937 a23e d808 303e
000000d0: e6b8 853e 3122 ee3e a84e 8f3e d723 9c3e
000000e0: add6 ff3d 91cf 3a3e 24d4 2d3e 3a86 873e
000000f0: 9266 f73d 590c 4c3e 9e90 aa3e db39 403e

bn2.weight f4 [32]
0.57521987 0.71172315 0.53826594 0.61199397 0.43445706 0.5032001 0.6150981 0.48966333
0.49094868 0.8049435 0.7321121 0.78989404 0.5540252 0.64033246 0.5762579 0.7664442
0.87089765 0.73727965 0.57790476 0.625501 0.7610707 0.64650536 0.7639061 0.64305735
0.50131637 0.772648 0.8176176 0.5671993 0.7418313 0.750356 0.9165458 0.50410014
00000000: 9c41 133f 7d33 363f cccb 093f a3ab 1c3f
00000010: 2871 de3e b9d1 003f 1277 1d3f 27b5 fa3e
00000020: a05d fb3e c710 4e3f b36b 3b3f 7f36 4a3f
00000030: 98d4 0d3f d4ec 233f a385 133f b035 443f
00000040: 26f3 5e3f 5cbe 3c3f 91f1 133f d520 203f
00000050: 88d5 423f 6081 253f 5a8f 433f 689f 243f
00000060: 4556 003f 42cc 453f 634f 513f f933 113f
00000070: a8e8 3d3f 5517 403f bfa2 6a3f b50c 013f

bn2.bias f4 [32]
-0.22561122 -0.09989317 -0.08421534 -0.25304505 -0.085120484 -0.067638606 -0.44535008 -0.11828516
-0.17428765 0.029265543 -0.23607522 -0.9227906 -0.18763226 -0.2168959 -0.11566366 -1.262015
-0.9753037 -1.2957019 -0.20240474 -0.19816928 -0.58948123 -0.2359043 -1.2853729 -0.021073967
-0.12424174 0.18239908 -1.3999598 -0.20516658 -0.42453647 -0.39919275 -0.91858065 -0.15778768
00000000: a106 67be ca94 ccbd 1879 acbd 1f8f 81be
00000010: a653 aebd 1c86 8abd ed04 e4be 7d3f f2bd
00000020: 7678 32be 4bbe ef3c b4bd 71be 013c 6cbf
00000030: ac22 40be f519 5ebe 12e1 ecbd b589 a1bf
00000040: 81ad 79bf 8fd9 a5bf 3043 4fbe e3ec 4abe
00000050: 3ee8 16bf e690 71be 1987 a4bf 50a3 acbc
00000060: 7472 febd d3c6 3a3e e231 b3bf 3017 52be
00000070: d85c d9be fe62 ccbe 1a28 6bbf 1893 21be

bn2.running_mean f4 [32]
-0.10147262 -0.2858287 -0.18015727 0.2043498 -0.43595153 -0.29098928 -0.66322327 -0.2163963
-0.23363464 -0.6092367 0.12041651 0.14344902 -0.055342782 -0.3142987 -0.2978023 -1.5544811
0.010994243 -0.94598687 -0.2038511 -0.1426753 -1.429817 0.11316263 -1.5047764 -0.3240358
-0.23172586 -0.4124446 -0.6255146 -0.15406264 -0.88428175 -0.885991 -0.13312373 0.052057233
00000000: e1d0 cfbd 2458 92be 267b 38be 1341 513e
00000010: 0a35 dfbe 8cfc 94be 00c9 29bf fe96 5dbe
00000020: eb3d 6fbe f0f6 1bbf ee9c f63d 4de4 123e
00000030: 1daf 62bd c2eb a0be 8b79 98be 3df9 c6bf
00000040: 3321 343c 322c 72bf 58be 50be 7919 12be
00000050: 3e04 b7bf cfc1 e73d 839c c0bf 05e8 a5be
00000060: 8b49 6dbe f02b d3be ba21 20bf 99c2 1dbe
00000070: 4a60 62bf 4ed0 62bf 9651 08be f739 553d

bn2.running_var f4 [32]
0.22191975 0.22977576 0.4403393 0.07426389 0.35256445 0.1326801 0.23312443 0.38723084
0.08674342 0.26040456 0.10338611 0.14123765 0.1726249 0.19925435 0.10950363 0.4379687
0.12268129 0.3629671 0.1884904 0.08706888 0.4197628 0.079949364 0.6138992 0.18188521
0.3263569 0.34621575 0.19148114 0.10564066 0.3552823 0.40212977 0.14325339 0.06866632
00000000: ee3e 633e 564a 6b3e 2774 e13e ab17 983d
00000010: 5483 b43e 4bdd 073e 2cb8 6e3e 1f43 c63e
00000020: 89a6 b13d bf53 853e 19bc d33d 9aa0 103e
00000030: 95c4 303e 5509 4c3e 7043 e03d 6f3d e03e
00000040: 5440 fb3d d3d6 b93e a103 413e 2b51 b23d
00000050: 26eb d63e 7ebc a33d 7f28 1d3f 1e40 3a3e
00000060: 4018 a73e 3143 b13e a213 443e 215a d83d
00000070: 90e7 b53e f4e3 cd3e 04b1 123e eda0 8c3d

bn3.weight f4 [16]
11.527287 11.710373 11.614202 11.80125 11.742242 11.516424 11.428519 11.790268
11.606737 11.217965 11.614329 11.242646 11.746938 11.7316675 11.329705 11.340168
00000000: c46f 3841 b05d 3b41 c5d3 3941 ecd1 3c41
00000010: 39e0 3b41 4643 3841 37db 3641 f0a4 3c41
00000020: 32b5 3941 c97c 3341 4bd4 3941 e1e1 3341
00000030: 75f3 3b41 e9b4 3b41 7946 3541 5471 3541

bn3.bias f4 [16]
12.439792 12.370065 12.502715 12.5239935 12.4442425 12.419279 12.366647 12.485521
12.475976 12.16175 12.381096 12.230347 12.3907 12.375918 12.259514 12.290133
00000000: 6309 4741 c9eb 4541 1f0b 4841 4762 4841
00000010: 9e1b 4741 5eb5 4641 c9dd 4541 b2c4 4741
00000020: 999d 4741 8796 4241 f818 4641 80af 4341
00000030: 4f40 4641 c303 4641 f826 4441 63a4 4441

bn3.running_mean f4 [16]
0.52048135 1.05703 0.07492173 0.3518536 0.9601201 1.41918 0.6700583 1.1439906
1.0277833 0.7808551 0.04689152 0.002063936 1.6597869 0.48925602 0.26690078 0.53350675
00000000: 443e 053f c24c 873f 9070 993d 2826 b43e
00000010: 6eca 753f b1a7 b53f f188 2b3f 496e 923f
00000020: 678e 833f 1fe6 473f 5311 403d 1a43 073b
00000030: e673 d43f c47f fa3e 38a7 883e e693 083f

bn3.running_var f4 [16]
1.5799221 2.0590305 1.6363202 1.4613514 1.7259144 1.9922283 1.7601187 2.125652
1.9826295 1.653002 1.5819727 1.5531763 1.7546171 1.6429176 1.3475047 1.777285
00000000: e33a ca3f 28c7 0340 f172 d13f 900d bb3f
00000010: c3ea dc3f 5601 ff3f 924b e13f af0a 0840
00000020: cec6 fd3f 9295 d33f 157e ca3f 7bce c63f
00000030: 4b97 e03f 204b d23f 097b ac3f 137e e33f
